outputs/model_best_q1.pt (torch, 318631 bytes, 32 tensors)

cls_token f4 [1, 1, 64]
000000 6b 0e d8 bd 41 a0 44 bf 59 d1 aa be b4 ce 33 be
       -0.10549625 -0.7680703 -0.33362845 -0.1755932
000010 36 64 49 be 4b df 05 3f c7 a3 97 be 31 10 fa 3d
       -0.19667134 0.52293843 -0.2961714 0.122101195
000020 e3 72 e0 3f d4 ea 9f 3e e2 25 72 be da ae fc 3e
       1.7535061 0.31233847 -0.23647264 0.4935215
000030 af 4d 26 c0 d8 b7 19 bf b4 22 3e bf 49 e2 49 3f
       -2.5984914 -0.6004615 -0.742717 0.7886091
000040 12 ba ce be da 6b 98 3e 0e 24 91 3e a7 19 6b 3f
       -0.40376335 0.29769784 0.2834782 0.9183602
000050 3e 87 05 bf 52 42 c0 3e 4b f7 10 bf da 9c c9 3f
       -0.5215949 0.37550598 -0.5662734 1.5750992
000060 31 bc ee 3e 93 4d 02 40 8c a8 a2 3f d5 b1 99 3f
       0.46627954 2.0359848 1.2707686 1.2007395
000070 89 5e 05 bf 0a 16 d8 bf b2 1f 65 bb 3f c6 18 40
       -0.52097374 -1.6881726 -0.0034961519 2.3871
000080 0c 65 f2 3f 35 7c 9c 3c a8 59 95 3f 26 f2 36 3f
       1.8937087 0.019102195 1.1667986 0.7146324
000090 83 d2 ee 3e 88 3c 6a be 19 e8 57 3c 95 44 3f bf
       0.46644983 -0.22874653 0.013177895 -0.7471402
0000a0 7a 16 30 bf 6e 8a 86 bf 29 4d ca be f6 a7 98 3f
       -0.68784297 -1.0510995 -0.39511994 1.1926258
0000b0 e7 62 6b 3f f2 21 be be 8f 16 98 be 09 23 f7 be
       0.9194779 -0.37135273 -0.2970471 -0.48268917
0000c0 36 c4 dc be 14 11 12 3f 60 49 9c 3e 3d 0b a1 bf
       -0.43118447 0.5705731 0.3052473 -1.2581555
0000d0 f3 ad 17 3f 4c d1 9a 3c 1a 39 6d bf 55 3b 98 bf
       0.592498 0.018898629 -0.92665255 -1.1893107
0000e0 64 dc 81 3e eb 6f 10 bf 4d 54 2b 3f 44 38 ae 3e
       0.25363457 -0.56420773 0.6692551 0.34027302
0000f0 6a ed d5 bf 43 f7 b1 be cd 99 80 bf b2 85 52 3f
       -1.6713078 -0.34758958 -1.0046936 0.8223525

basis_embedding.weight f4 [3, 64]
000000 91 b0 59 3f ba 74 17 3f 79 1a 66 bf fa ed 9d 3e
       0.85035044 0.59162486 -0.89884144 0.30845624
000010 c6 3f 14 40 64 55 6e 3e 2c ac b3 bf b2 63 aa bf
       2.3163924 0.23274761 -1.4036918 -1.3311675
000020 2b 47 e8 3e 6f 7f 1f 3e b3 36 ad 3f 11 65 15 bf
       0.45366797 0.15575956 1.3532318 -0.5835734
000030 3e 5a af be 27 0c a7 be f7 d6 85 bf dd e4 8f 3f
       -0.34248537 -0.3262646 -1.0456227 1.1241719
000040 0f bf d9 be 90 86 a2 bd 3a 99 99 bf d8 11 de 3d
       -0.4252858 -0.07935822 -1.1999886 0.10843247
000050 48 df 71 bd 2e 21 d5 3e ec 52 31 3e 57 10 0f 40
       -0.05905083 0.41626877 0.17316788 2.2353723
000060 d7 23 1c 40 87 10 d0 3f de 38 40 bf 1d 85 53 bf
       2.4396875 1.6255044 -0.7508677 -0.8262499
000070 d2 99 70 3f 44 08 26 40 96 c8 77 be f4 6b b6 3e
       0.9398471 2.5942545 -0.24197611 0.35629237
000080 f7 3d 72 bc 16 0a aa bf 60 9d 88 3e ec 97 da bc
       -0.014785281 -1.3284328 0.26682568 -0.02668377
000090 70 d6 6b 3f 0c 50 27 c0 52 10 6e be 2c c4 0c 40
       0.9212408 -2.6142607 -0.23248413 2.1994734
0000a0 9b 5e b4 bf 2e eb e4 bf 70 b4 cd bf ce 61 6f bf
       -1.4091371 -1.7884271 -1.607069 -0.93508613
0000b0 ea a4 5d 3f 73 90 7a bd 9a 46 04 3f f9 ba 01 40
       0.86579764 -0.061172914 0.5167023 2.027037
0000c0 64 9c 70 3e 06 9b 19 c0 17 07 cf be 9a 5c c3 bf
       0.23497158 -2.4000869 -0.40435097 -1.5262635
0000d0 a6 23 c5 bf af ee fe 3e 3a 73 9c bf f0 c6 88 be
       -1.5401504 0.49791476 -1.2222664 -0.26714277
0000e0 7b 30 d6 3f 6d 22 1f 40 d3 1f e4 3f a1 45 76 3f
       1.6733545 2.4864762 1.7822212 0.96199995
0000f0 72 4e d3 3d 7e fb 52 bf dc f0 56 3f 83 5d a7 3f
       0.10317697 -0.82414997 0.8396127 1.3075413
000100 a8 62 dd 3f 03 e0 5b 3f f8 31 7a be 28 65 8a bf
       1.7295732 0.8588869 -0.24433124 -1.081212
000110 0e 4a ac bd 17 0a 6a 3e 27 6e c5 3f 88 77 48 3f
       -0.08412562 0.22855411 1.5424241 0.7830739
000120 e9 ec 86 bf a6 c5 3c 3f 24 c3 21 3f f3 7b 2a bf
       -1.0541049 0.7373909 0.63188386 -0.6659538
000130 92 43 93 3e b7 11 22 bf 0d ca ac 3e 3b 1a 53 3e
       0.2876249 -0.6330828 0.33747903 0.20615475
000140 a5 d5 37 3f 81 86 ab 3f 71 60 01 3f 84 fe 0a c0
       0.7181037 1.3400422 0.5053778 -2.1717844
000150 cf a9 81 bf 07 f8 06 3e c4 52 2b bf 2a a1 a7 bf
       -1.0129946 0.13180552 -0.66923165 -1.3096058
000160 9d 96 9a bf 3a e9 6b 3e 5f bf 8c bf 05 aa 32 be
       -1.2077214 0.23038188 -1.0995902 -0.1744767
000170 ab 66 c4 be 08 4b 99 3f 6b c5 aa 3d c1 16 10 c0
       -0.3835958 1.1976023 0.08338436 -2.2513888
000180 e2 93 5b 3d fb a5 23 c0 af 43 55 be 5b d0 cf bd
       0.05360783 -2.5570056 -0.208266 -0.101471625
000190 18 0e 53 3e aa c0 b8 3e f5 54 09 bf 0e 12 3b 3d
       0.20610845 0.3608449 -0.5364526 0.045671515
0001a0 94 06 c8 3e 63 68 bc 3e ac 90 b9 3f 74 68 df 3e
       0.3906752 0.3679839 1.4497275 0.4363438
0001b0 2f 80 37 3f 9f 79 7c bf ec 71 7e bc 2c ec cf 3f
       0.7167997 -0.9862308 -0.015530091 1.6243949
0001c0 c1 d7 4f bf 71 d9 75 bf 81 3e 98 bf c5 6e 2f bf
       -0.8118859 -0.96034914 -1.1894075 -0.68528396
0001d0 dc c1 a1 bf d5 40 9e bf b8 d2 9f be 9e cc d9 be
       -1.2637286 -1.2363535 -0.31215453 -0.42538923
0001e0 42 da fa 3d 3e ae 28 3e 84 13 20 bf ba 57 36 3f
       0.122486606 0.16472718 -0.6252978 0.7122761
0001f0 1c 38 a5 bf 51 af a7 3e c8 ef 0b 40 c7 f6 7f be
       -1.2907748 0.32750943 2.18651 -0.24996482
000200 5f 39 2d bf 57 55 89 bf dd 3e df be 43 29 0c bf
       -0.67665666 -1.0729169 -0.43602648 -0.5475046
000210 2c 23 da 3d f9 ac a4 bf 57 37 64 bf 06 67 34 bf
       0.1065124 -1.2865287 -0.8914694 -0.704697
000220 49 aa 22 3e 34 43 10 bf 12 90 8a be 4b 76 b7 3f
       0.15885271 -0.56352544 -0.27063042 1.4332975
000230 bf 88 25 3f 5d 9d 76 bf c4 c2 b7 bf cc cd ae be
       0.6466178 -0.9633387 -1.4356313 -0.34141386
000240 b0 cb aa bf f2 44 e0 3d 42 d2 a3 3e 95 6f 8d 3e
       -1.334341 0.1095065 0.3199635 0.27624193
000250 2e b3 7c bf 9d bb 3a 3f d4 a8 0c c0 a8 e2 3a be
       -0.98710907 0.72942525 -2.1978045 -0.18250525
000260 61 3f 25 c0 18 70 50 3e 72 a9 0f 40 03 87 d5 bf
       -2.5819933 0.2035526 2.2447171 -1.6681827
000270 91 03 d6 3f bd fb 9e bf bc 48 bc be cc 55 5f 3d
       1.6719838 -1.2420574 -0.36774242 0.05452518
000280 ee cf 19 3e 19 57 83 3f 71 7f 84 3f d7 7d bb 3e
       0.15020725 1.0260955 1.0351392 0.36619446
000290 e3 92 e0 3c c1 85 09 3f 35 f6 2e 3e c1 b2 73 bf
       0.027413791 0.5371972 0.17086108 -0.9519463
0002a0 ed f7 1a bf d1 f4 51 bf 60 95 25 3f 37 d8 8c 3d
       -0.60534555 -0.82014185 0.64681053 0.06877177
0002b0 7a c7 db 3f 8a c5 66 bf cc 1f 44 3f c1 ec f4 3f
       1.717025 -0.9014517 0.7661102 1.9134752
0002c0 aa ee 8b 3f 2e d8 c1 3e 21 0b 89 be 0a 6d 07 40
       1.093221 0.37860245 -0.26766303 2.1160302
0002d0 19 39 a4 3f b9 38 91 3f 26 06 86 3f 61 3c 9c bf
       1.2829925 1.1345435 1.0470626 -1.2205926
0002e0 db 37 8e be 10 d7 7e bf 72 7d 74 bf d0 25 ac 3e
       -0.2777699 -0.9954691 -0.95503914 0.336226
0002f0 71 e7 37 3f c0 46 38 3f e0 6f fc bf c6 f8 13 bf
       0.71837527 0.71982956 -1.9721642 -0.57801473

outcome_embedding.weight f4 [64, 1]
000000 01 d4 39 3f 2d d7 c2 3e dd fa 47 3e f4 98 64 bf
       0.7258912 0.3805479 0.1952929 -0.8929589
000010 af f2 37 3c b2 77 54 bf 45 18 86 bf 16 ea 82 be
       0.011227294 -0.8299514 -1.0476156 -0.25569218
000020 a5 13 07 bf ab d8 f6 3e 1a 0b b8 bd 77 37 61 3f
       -0.5276435 0.4821218 -0.089864925 0.8797526
000030 17 09 76 3f 0f cc 64 3d a9 bd f7 3e f0 7f ce 3e
       0.9610762 0.055858668 0.48386887 0.40331984
000040 a4 6b 26 3f 58 22 9f be e9 f8 9b bd 75 95 48 bf
       0.65007997 -0.3108089 -0.07615835 -0.78353053
000050 10 3c 75 bf 6d ac 44 3f a0 44 39 3f 6f 27 21 bf
       -0.95794773 0.768256 0.7237034 -0.62950796
000060 d6 b5 0d 3f 3b 2b 40 bf 44 af ae 3e 87 77 4b be
       0.55355585 -0.75065964 0.34118092 -0.19869815
000070 8a 8b cd be 0d e6 c0 be 7d fe ef bd 18 40 da be
       -0.40145522 -0.37675515 -0.11718462 -0.42627025
000080 89 a7 91 3d 06 0a 6b bf 31 21 b9 3e b3 ef 19 3e
       0.07112033 -0.9181217 0.36158136 0.15032844
000090 90 0c 2c 3e 10 76 94 bd 21 b6 f3 be 35 f2 c4 3e
       0.16801667 -0.07249081 -0.4759989 0.3846604
0000a0 79 9e 7a bf 10 01 00 bf a6 94 4f 3d 6e 26 b3 3e
       -0.9789806 -0.5000162 0.05067887 0.34990257
0000b0 e9 f4 91 be 97 de 2a 3e 75 18 57 be 8d b9 33 3f
       -0.28507164 0.16686474 -0.21005423 0.70205003
0000c0 f8 6e a7 3e b9 c4 19 bf 6e fc 68 bf 3f f1 36 bf
       0.3270185 -0.600658 -0.9101018 -0.7146186
0000d0 22 9a a7 be ad 06 71 bf 29 89 63 3f 86 7c bb be
       -0.32734782 -0.9415081 0.88881165 -0.3661844
0000e0 9e 5b 1c be 27 05 04 be bb 1d 0d be d0 bb 6d bf
       -0.15269324 -0.1289259 -0.13780873 -0.92864704
0000f0 b2 04 0e bf 91 29 fc 3e a8 5c 61 3f 9d f7 5f bf
       -0.55475914 0.49250463 0.8803201 -0.874872

outcome_embedding.bias f4 [64]
000000 1a e5 27 bd d9 42 10 3e 88 6e 2c bf 5f b3 0a 3f
       -0.040989973 0.14088 -0.6735616 0.5417995
000010 25 92 8e be e3 d3 8c be c2 4c 38 3e de bc 23 3f
       -0.27845874 -0.27505407 0.17998031 0.63960063
000020 43 30 aa 3e de 8f 6a be eb cb af 3e 1a 35 55 3f
       0.33239946 -0.22906443 0.34335265 0.8328415
000030 eb 4c e8 bd 70 8c 17 bf f7 88 07 3f 80 ef ad 3e
       -0.11342796 -0.59198666 0.52943367 0.33971786
000040 ce 30 60 3e 95 9d 2e bf e2 11 b6 3e 05 99 4a 3e
       0.21893618 -0.682092 0.35560519 0.19784935
000050 f2 d4 08 3f b6 e9 1c 3b 78 fd 3b 3b 61 d3 b2 be
       0.5344993 0.0023943014 0.0028685015 -0.34926894
000060 d0 85 d1 3e 77 c1 6d bf 75 52 39 3f af 7f bf be
       0.40922403 -0.9287333 0.72391444 -0.37402102
000070 98 56 e0 3c 79 6b 96 3e 46 6f a2 3e 82 8f 65 3f
       0.027385041 0.2937887 0.3172552 0.896721
000080 5e 9c fc be d5 b1 49 3f 34 57 1e bf 50 ec d8 be
       -0.4933805 0.78786975 -0.6185181 -0.42367792
000090 07 81 05 3f cc b0 46 3f a5 64 5f 3e 81 b8 fa 3e
       0.52150005 0.7761352 0.21815737 0.4896889
0000a0 35 7f ba be d8 d8 0e 3f 0b 70 d2 bd 4b d8 4e bf
       -0.36425176 0.5579963 -0.10275277 -0.80798787
0000b0 d5 ea a1 be 3d 8a 1d 3e 15 15 61 3f b8 cd 07 be
       -0.31624475 0.15384765 0.87922794 -0.13262069
0000c0 83 dc ea 3e d9 ff 1a bf 02 85 94 bc 19 ac 02 3f
       0.45871362 -0.6054664 -0.01812983 0.5104385
0000d0 90 6d 37 bf af 07 00 3f f9 a8 9e 3e 45 26 82 be
       -0.71651554 0.50011724 0.3098829 -0.25419822
0000e0 00 59 70 bf 62 46 1c bd 09 d5 10 bf 66 25 3a 3f
       -0.93885803 -0.03815306 -0.56575066 0.72713315
0000f0 28 d9 ff be 2e a1 34 bf 55 d3 77 3f 51 58 27 bf
       -0.49970365 -0.7055844 0.9680684 -0.65369135

transformer.layers.0.self_attn.in_proj_weight f4 [192, 64]
000000 a3 92 d3 3d 84 be de bd 37 0e 15 bd 0a 5c 64 3d
       0.10330703 -0.10876182 -0.03639051 0.055751838
000010 33 9a d3 3d 49 03 87 3d 1d 23 3e bd 40 d8 5f 3d
       0.103321455 0.065924235 -0.046420205 0.05464959
000020 9e c0 80 bc 96 fe 08 3d 94 70 9f bd 19 d3 be 3a
       -0.015716847 0.033445917 -0.077851444 0.0014558762
000030 9e 10 dc 3d c6 72 0e be 36 a3 04 be f1 2b 21 bd
       0.10745357 -0.1391097 -0.12952885 -0.039348546
000040 93 59 6a bd e7 1f 21 bd 52 7d f6 bb 49 33 01 3c
       -0.05721433 -0.039337065 -0.0075222636 0.0078857625
000050 5c c0 d3 3c ed 6f 25 bd ab eb ca 3d 43 dd 3c 3c
       0.02584856 -0.040389944 0.09908231 0.011527362
000060 05 2c 0e 3e 3b c4 3d bd 45 ef 6c bc f0 6c 9d bc
       0.1388398 -0.046329718 -0.014461343 -0.019216985
000070 76 47 27 3e 65 ed ed 3d d6 62 e9 3d fb 97 88 bd
       0.16335854 0.11617545 0.113958046 -0.06669613
000080 bd b0 4c 3d c2 cc 36 3d e5 18 28 3e 62 19 75 3c
       0.04997324 0.044628866 0.16415747 0.014959665
000090 84 f3 28 bd 50 bc f6 bd b6 0a 1f 3e fa 21 cf 3d
       -0.04124786 -0.120476365 0.1553143 0.101139024
0000a0 bb 1f f9 bc 18 09 44 bd bc 10 10 3e 73 81 05 3d
       -0.030410638 -0.047860235 0.14068884 0.032594156
0000b0 38 dc e1 bc 9d d2 d3 ba 89 70 f8 3d 9b 7b f0 3d
       -0.027570829 -0.001616079 0.121308394 0.11742326
0000c0 b4 34 bb 3c 0c 3c 8e bd 9f ef 7a 3d 69 78 13 be
       0.02285228 -0.06945047 0.061263677 -0.14401402
0000d0 66 58 e3 3d 41 6c bf bd da 6e a3 3d 05 03 e4 3d
       0.11100845 -0.0934682 0.07980128 0.111333884
0000e0 5a 0d 73 bd 7f fa cd 3d 54 ba 0f 3e ad e0 26 3d
       -0.059338905 0.10057544 0.14035922 0.04074161
0000f0 23 97 05 3e a5 88 dc bd 2f 97 da 3d 94 6c 15 be
       0.13045935 -0.107682504 0.10673367 -0.145922
000100 de 0d ce 3b a5 f8 02 bd f8 12 46 bd f4 1a e9 3d
       0.006288274 -0.031975407 -0.048357934 0.11382094
000110 be ea 32 bc 59 3c be bd 36 36 b0 bd 6c 04 02 3d
       -0.010920225 -0.09288854 -0.0860409 0.0317425
000120 02 20 df bc 77 50 0b be 7c 62 d8 3d 8d 62 cf bd
       -0.027236942 -0.13604914 0.105656594 -0.10126219
000130 2a 56 c3 3d 92 86 95 3c c4 05 b1 3c ec 0e 27 3d
       0.09537919 0.018252645 0.021609195 0.040785715
000140 6f 53 cb 3d 63 6f de bd 1b 2a a7 3d 4f b7 7b 3c
       0.09928023 -0.10861089 0.08162328 0.015363528
000150 81 0e 15 be f2 af 1c bd 9f 3f ed 3d 83 71 1a 3e
       -0.14556314 -0.038253732 0.115844004 0.15082364
000160 f9 ea bc bd d6 f0 f8 3b f6 11 b3 bc aa 94 ac bd
       -0.09224505 0.0075970693 -0.02185915 -0.08426793
000170 c8 7d 1e 3e 92 02 32 bc fb 7c 3b 3b 26 2e f4 3b
       0.15477669 -0.010864871 0.002860843 0.0074517904
000180 90 77 12 3d b9 9c 97 3c 7e 34 cc bd 45 db 03 be
       0.035758555 0.018507348 -0.099709496 -0.12876613
000190 c6 4f 5f 3c 21 f9 93 3b bb 7a 36 bb 5b d6 08 bd
       0.013629859 0.0045157825 -0.002784415 -0.03340755
0001a0 c4 9c a9 3d d7 3f c7 3d 9b 47 df bd b6 e8 4c 3c
       0.08281854 0.09728973 -0.109023295 0.0125066545
0001b0 c8 0b c4 bd 52 bb bb bd 34 97 82 3d 09 a2 19 be
       -0.095725596 -0.09166588 0.06376496 -0.15003218
0001c0 d6 93 75 bd 3c 4e 00 be 8f 4d 14 be 0f 7b 03 bd
       -0.05995544 -0.12529844 -0.14482711 -0.03209978
0001d0 d0 2b 93 bd 69 23 c5 3d 25 67 e1 3d 00 1a f1 3c
       -0.07186091 0.096258946 0.110060014 0.029431343
0001e0 8d a6 06 be a1 50 96 bd f3 06 dc 3d 49 ae 51 3d
       -0.13149472 -0.073395975 0.10743513 0.051191602
0001f0 c3 9e 90 ba 96 6a e9 3b 53 d6 15 be 40 4e ba 3d
       -0.0011033643 0.0071233017 -0.1463254 0.09096956
000200 19 d1 8e 3c 3b 61 05 3d 30 11 93 3d 04 1e b6 bd
       0.01743369 0.03256343 0.07181013 -0.08892444
000210 b6 d2 98 3d 88 7c 55 3d 2f 96 08 be 08 ea b8 3d
       0.07462065 0.052120715 -0.1333854 0.09029013
000220 32 15 0e be b4 0f bf bd 53 c4 38 bd ef eb 13 be
       -0.13875273 -0.09329167 -0.045109104 -0.1444547
000230 5e 7d 7d 3d c0 86 65 3c 01 1b 09 3e 67 d3 7a bd
       0.061887138 0.014009178 0.13389207 -0.061236765
000240 a8 40 9b bd d0 37 da bd d9 55 12 be c5 b5 72 3b
       -0.075806916 -0.10655177 -0.14290561 0.0037034613
000250 ae 4e fc 3b 67 a4 4e bd 9b ef b9 bc 78 c8 1a bd
       0.007699809 -0.050449755 -0.02269726 -0.03778884
000260 b0 32 99 bd 1f 23 78 3c 50 3c 89 bd 28 1f b3 bc
       -0.07480371 0.015145092 -0.06700957 -0.021865442
000270 8f 76 8d bd e1 9a d0 3d 84 ec 98 bd a6 22 52 bd
       -0.06907379 0.10185791 -0.07466987 -0.051302575
000280 c7 68 43 3d 19 7b 9e 3d 04 8e fe bc 1c 9f 18 be
       0.047707345 0.07738323 -0.031073578 -0.14904445
000290 44 5f 9e bd 40 3e 82 bd 2e 61 98 bd 96 4e a4 3d
       -0.07733014 -0.063595295 -0.074404106 0.080228016
0002a0 4e 8e d8 bb a3 2c 00 bd 7b 6f f6 bd 9c a3 e8 bc
       -0.006608761 -0.03129257 -0.12032982 -0.028398328
0002b0 a6 ad 6f bd 9a aa 06 be 50 89 82 3c 7e 57 6f 3d
       -0.058515213 -0.13151017 0.015934616 0.05843305
0002c0 80 5b f0 3c 9a b8 28 be 40 dc 90 bd b7 5b e3 3d
       0.029340506 -0.1647667 -0.07073259 0.111014776
0002d0 f2 c2 b2 bd 5c 33 98 3d 18 0c ea bc 1b 8a cb bd
       -0.08728589 0.07431671 -0.02857022 -0.09938451
0002e0 91 d3 ae bd da 7c f9 bd 45 99 cd 3c 67 12 0d 3e
       -0.08536447 -0.12182017 0.025097499 0.13776551
0002f0 f6 da 62 3d 1c 66 e0 bd e5 cd 3e 3d 97 1a 43 bd
       0.0553846 -0.10956976 0.046583075 -0.04763278
000300 b7 ab 4f 3d 93 76 9e 3d 65 0b a4 bd 69 3c 6b 3d
       0.05070087 0.0773746 -0.08009986 0.05743066
000310 48 e0 31 3d 47 72 2c 3c 2b ac b8 bd 25 40 5a 3d
       0.043426782 0.010525293 -0.090172134 0.05328383
000320 4a 6a 0c 3e 6f bb 07 be f7 69 19 3d 53 d7 b1 3d
       0.13712421 -0.13255094 0.03745457 0.08683648
000330 83 0c 06 be 83 59 63 bd 02 eb 6a 3d 9f c3 01 3e
       -0.1309071 -0.055505287 0.057353027 0.1267228
000340 bd 5a 81 3d 8f d5 79 bd b9 21 d8 bd 69 80 cc 3d
       0.06316135 -0.06099468 -0.10553307 0.0998543
000350 fd 9a fe bd d7 d1 89 3d 83 5b 6c bc 10 88 0f be
       -0.124319054 0.06729477 -0.014426115 -0.14016747
000360 1e ba 3d 3d 2b ea 57 3d d3 29 b2 bd 13 2b 35 3d
       0.046320073 0.052713554 -0.086993836 0.044230532
000370 7b 92 ca bd 0e 1a 1d 3e cc 45 1a be 23 fc 0a 3d
       -0.0989122 0.1534197 -0.15065688 0.033931863
000380 74 e3 77 3d 92 34 dc bc ad 36 2b bd 15 ca 83 3d
       0.06051965 -0.026880536 -0.04180019 0.064350285
000390 87 4b 1f be 7f 34 88 bd 56 7f 8a bd 03 b8 68 bd
       -0.15556155 -0.06650638 -0.06762569 -0.056816112
0003a0 46 b9 f4 3c 1d 4f f6 bd cd 79 d0 bd 00 76 b9 bc
       0.029873502 -0.120268084 -0.10179482 -0.022639275
0003b0 f1 13 56 3d 40 54 bf bd 1c c7 16 3e 4f 2a 2d bb
       0.05226511 -0.09342241 0.14724392 -0.0026422923
0003c0 44 78 8b bd 1b 39 3a 3c c5 4d 4b bd cf 58 16 3c
       -0.06810048 0.011366154 -0.049634714 0.009176447
0003d0 4b b6 0f bd dc 20 e8 bd 76 89 e4 3d 89 4d 17 bd
       -0.035085957 -0.113343924 0.11159031 -0.036939178
0003e0 36 6e 06 be 0f 81 c5 bd 4d ab 24 3d 08 82 76 3d
       -0.1312798 -0.096437566 0.040202428 0.0601826
0003f0 9c ee f8 bc c3 1c 0a be 12 e1 e2 3d e6 1a 6d 3b
       -0.030387215 -0.13487534 0.11078085 0.0036179363

transformer.layers.0.self_attn.in_proj_bias f4 [192]
000000 cd ac c2 3b 4e da 34 bb 0a e2 33 bc 3c f6 4e bc
       0.0059410096 -0.002759594 -0.010979185 -0.012631949
000010 fd 77 dd bb fa e0 0b 3c b6 b7 cd 3b 05 26 e4 ba
       -0.0067586885 0.008537525 0.0062780036 -0.001740635
000020 d3 63 67 3a c8 55 c5 3b dc 30 d2 bb fc c8 85 bb
       0.00088268257 0.006022189 -0.006414516 -0.004082797
000030 98 18 02 bb 27 9f 2e bb 14 e1 0a 3b a0 d2 8a bb
       -0.0019851085 -0.0026645155 0.0021191286 -0.0042365342
000040 d8 8a 2c bc b8 23 1a 3c 32 61 e2 3b 07 80 b4 b9
       -0.01053115 0.00940793 0.0069085592 -0.00034427663
000050 43 46 2a 3c e1 7c ce 39 7c ae 97 bb 07 4b e6 3b
       0.010392728 0.00039384424 -0.0046289545 0.007027987
000060 33 2f 59 3c cb 3b fd bb 20 ff 0e bc 53 7e 24 3c
       0.013255882 -0.007728075 -0.008727819 0.010039884
000070 05 36 42 3b 4b 34 45 3c 5e ec 0b ba e6 66 ee 39
       0.002963425 0.012036393 -0.00053376507 0.00045471563
000080 45 0d 10 39 09 05 19 bc 3a 66 c7 bc dd 59 3a 3c
       0.00013737853 -0.009339579 -0.024340738 0.011373964
000090 83 cf 15 bc ec 76 ac bc 6a 9a 75 bb 64 0e ed bc
       -0.009143713 -0.0210528 -0.003747607 -0.028937526
0000a0 88 3b 0a bb e4 e0 0f 3d 8f 7e a0 bc 0a 07 8c bc
       -0.0021092612 0.03512658 -0.019591598 -0.0170932
0000b0 0a a6 0d 3c 22 48 89 bc f6 9f 4b bb 73 af 22 bc
       0.008645544 -0.016758028 -0.0031070686 -0.009929526
0000c0 22 75 d9 ba e0 b1 09 bc a3 80 3a bb c7 ce d4 ba
       -0.0016590694 -0.008404225 -0.002845802 -0.0016235941
0000d0 57 7b 9b bb 77 70 38 3c 56 a3 54 3b 5c 65 b1 3c
       -0.004744928 0.011257282 0.0032445989 0.021654777
0000e0 44 67 18 bd 15 cd 04 bb a4 c1 f4 3c c6 a9 73 3c
       -0.037207857 -0.002026384 0.029877491 0.01487202
0000f0 f2 a0 57 3c 1c f8 97 bc 3b f4 5a 3c 25 c0 29 bc
       0.013160931 -0.018550925 0.013363893 -0.010360752
000100 52 97 70 38 4c 77 da 37 bc ba 66 38 2e 85 d2 37
       5.7361387e-05 2.6043177e-05 5.5010183e-05 2.5095967e-05
000110 08 04 92 36 55 d6 ca b4 ac 9d f2 38 20 2a 81 b8
       4.3516084e-06 -3.778138e-07 0.00011568828 -6.159046e-05
000120 b9 ec f1 b6 62 ad 0f 38 2d 86 b5 b7 68 e3 92 37
       -7.209918e-06 3.4255332e-05 -2.1639362e-05 1.751045e-05
000130 ac c9 85 b7 0d 5f a3 b8 44 58 db 36 2c b9 46 b8
       -1.5948746e-05 -7.79015e-05 6.536984e-06 -4.7379333e-05
000140 1d 9b 73 37 4e 8d c0 37 6c 0f 66 36 8f 99 85 38
       1.4520044e-05 2.2953984e-05 3.4281647e-06 6.370537e-05
000150 91 f5 2a 39 77 2b 23 38 63 00 38 36 5d 73 a3 36
       0.00016303944 3.890271e-05 2.7418362e-06 4.8712086e-06
000160 80 fe 62 37 22 43 eb b7 04 40 9c 36 6a a0 4c 38
       1.3529905e-05 -2.8045444e-05 4.6566147e-06 4.8786787e-05
000170 3f 2a 6d 37 ca 6a 00 b8 74 91 49 38 8e d2 ad 37
       1.4136137e-05 -3.0617033e-05 4.8057598e-05 2.0721254e-05
000180 24 b2 6f b7 d7 a3 1e b8 3d 7d d6 37 00 35 0d b7
       -1.4286987e-05 -3.7822723e-05 2.5569107e-05 -8.416595e-06
000190 3b 9e 0b b8 16 0e 25 38 88 43 2c 37 90 8c 46 37
       -3.3287546e-05 3.9352184e-05 1.0267722e-05 1.1834447e-05
0001a0 71 fd fd b8 fa 77 aa 37 40 28 14 35 87 00 09 38
       -0.00012111187 2.0321448e-05 5.519287e-07 3.2663836e-05
0001b0 74 55 85 b8 0c 22 0c 37 2a b3 36 b8 00 ce 8b b7
       -6.357851e-05 8.352577e-06 -4.355904e-05 -1.6666017e-05
0001c0 5a 29 40 b8 3e ae d4 38 d0 66 1a b8 69 5e 00 37
       -4.581488e-05 0.00010141403 -3.6812213e-05 7.651376e-06
0001d0 ee a1 61 38 78 c2 f5 b7 fd 0e 1e b7 df 58 f9 37
       5.379499e-05 -2.9296833e-05 -9.421024e-06 2.9724497e-05
0001e0 d6 26 69 38 89 94 a1 b8 49 f8 6e 37 be 21 81 b8
       5.5587698e-05 -7.704745e-05 1.4243714e-05 -6.157484e-05
0001f0 d7 db 7b b7 48 e9 87 b7 f2 0a e9 38 54 fd 3c 35
       -1.5011951e-05 -1.6201884e-05 0.000111123445 7.04041e-07
000200 d3 93 7b 3b c8 1d a9 ba 34 c2 37 bc c9 40 3d bc
       0.003838767 -0.0012902552 -0.011215735 -0.0115510905
000210 58 5c 4b 3c ce 2c bb bb 11 14 d0 3b d4 e8 1a 3b
       0.012412153 -0.0057121282 0.0063500484 0.0023637312
000220 f3 3a 46 bc 8a 83 4b bc 66 ed 3d bc 36 d3 d7 bb
       -0.0120990155 -0.012421498 -0.011592245 -0.0065864576
000230 31 e9 0a bc 4d e7 11 bc 49 d5 22 bc 44 92 cb 3a
       -0.008478449 -0.008905244 -0.009938546 0.0015531261
000240 b8 cb 09 bc 79 6a 5f bb ea ee 42 bb 89 c9 01 3b
       -0.008410387 -0.0034090562 -0.0029744455 0.0019803962
000250 ae 1a 34 3c 2e 42 59 3c f1 59 25 ba 9c ad 78 39
       0.010992689 0.013260407 -0.0006307653 0.00023715798
000260 1d 8c 88 bc 88 36 be bb ab 6a 23 3b 04 d8 4d bc
       -0.016668374 -0.0058048405 0.0024935405 -0.012563709
000270 7e 05 ac 3a 98 04 5d bb 40 98 00 3c 2f b0 25 3c
       0.0013124195 -0.0033724662 0.007848799 0.010112806
000280 d0 7a 0d 3b 85 92 69 bb 9c c0 94 bc a6 bc 91 bc
       0.0021588095 -0.003564031 -0.01815825 -0.01779015
000290 f4 12 bb bb 6a 3e d0 3b 42 da 33 b8 95 a3 31 bb
       -0.0057090465 0.0063550966 -4.2880194e-05 -0.002710556
0002a0 6b 1b 9f 3a 5f 8a 5d 3a 44 df 48 ba b7 bd 81 3b
       0.0012138908 0.00084511 -0.00076626637 0.0039593833
0002b0 8e e3 10 3b 83 4d 62 ba e7 0d 00 3c 4f 64 e4 bb
       0.002210829 -0.0008632766 0.007815815 -0.0069699655
0002c0 f3 3b cd bb 14 38 79 3b 57 16 d5 3b 73 43 3e bb
       -0.00626325 0.003802781 0.0065029073 -0.0029031902
0002d0 3a 94 6a b9 fc b3 15 3c ce d5 3f bb f8 93 43 bc
       -0.00022371198 0.00913715 -0.0029271725 -0.011937134
0002e0 67 a8 08 bc 63 92 f4 ba 5e 1a e8 bb 90 9b a7 bb
       -0.0083409315 -0.0018659349 -0.0070832213 -0.00511498
0002f0 21 96 1c bc 69 02 87 3b 56 98 0c 3c 48 ac bb 3a
       -0.009557278 0.0041201604 0.008581242 0.0014318312

transformer.layers.0.self_attn.out_proj.weight f4 [64, 64]
000000 0d c5 8b 3d 06 8d e6 bd ee 5e fd 3d 66 5b 55 bd
       0.06824694 -0.11257367 0.12371622 -0.052089117
000010 be 17 a2 bb 02 25 12 3e f4 bf 26 bd d0 7a 08 3c
       -0.004946678 0.1427193 -0.040710405 0.008330062
000020 15 56 75 3d da f3 f7 bd e6 16 a4 bd 80 33 91 bd
       0.059896547 -0.12107058 -0.0801218 -0.07089901
000030 0e 3b 54 3c 40 49 6e 3d 80 c5 92 bd ad 3c bd bb
       0.012953533 0.058175325 -0.071665764 -0.0057750554
000040 d0 71 0f be 60 2b 9c 3b ff 91 b5 bb 12 5b 08 3e
       -0.1400826 0.004765913 -0.0055410857 0.1331599
000050 da 59 50 bc 68 c9 ab 3d 56 1a 7e 3c ba 72 cf bd
       -0.012716735 0.083880246 0.015509209 -0.10129304
000060 d1 b9 c9 bd 5d 3e b8 bc 59 66 8c bb 79 44 84 bd
       -0.09849895 -0.022490675 -0.0042846617 -0.064583726
000070 7b 14 38 3d db 64 ae 3d ce ba a5 3c 6c b7 57 3d
       0.044941407 0.085153304 0.020230677 0.05266516
000080 eb e0 ab 3d 40 bb a5 bd 4a d7 82 3d 77 25 96 bd
       0.08392509 -0.08092356 0.063887194 -0.073313646
000090 0c d6 a3 3d 2c c3 dd bc cf 15 cb bd e2 49 66 39
       0.079998106 -0.027070604 -0.09916269 0.00021962033
0000a0 f6 3f d7 bd 3f 5a 59 3d 56 a7 9b bd ca 3e ca 3d
       -0.105102465 0.05306458 -0.07600276 0.09875257
0000b0 f6 a1 44 3d 65 a6 eb 3d 3e 22 8a bd c5 4d c7 bd
       0.04800602 0.115063466 -0.067448124 -0.0973163
0000c0 0a 47 a5 3d 03 0f b6 bd c9 1a da 3d 86 b4 c2 bd
       0.0807019 -0.08889582 0.1064964 -0.09507088
0000d0 03 88 a1 3d 78 cc a3 bd 92 99 16 3d 3c a3 7e 3c
       0.0788727 -0.07997984 0.03676755 0.015541848
0000e0 45 d7 97 bd 75 84 8a 3d d3 79 b6 3d fe 0b 97 bd
       -0.07414106 0.067635454 0.08909955 -0.07375334
0000f0 06 17 f1 bc 61 61 a1 bd 39 84 25 bd 5f bf a5 3d
       -0.029429924 -0.07879902 -0.0404093 0.08093142
000100 70 01 12 bd 0b 45 25 bd fd df ad bc 7e 69 a7 3c
       -0.035645902 -0.040349048 -0.02122497 0.020436045
000110 4b 68 6e 3d 67 f9 2f 3b d8 1e 41 bd 28 dc 8e 3d
       0.05820493 0.0026851536 -0.047148556 0.06975585
000120 7c 2e 9d bd 96 08 8c bd 87 f3 c1 3c a3 89 fa bd
       -0.07674882 -0.06837575 0.023675693 -0.12233283
000130 f3 7b 13 3d ca 45 05 be 1e f1 02 bd 5d 53 f5 3d
       0.03600688 -0.13014904 -0.03196823 0.11978791
000140 b0 ba 88 3d c9 4d 74 3c 47 48 19 3e 7b bc d4 3c
       0.06676233 0.014911124 0.14968978 0.02596878
000150 c2 f7 d7 bd e5 81 14 bc 08 ce 04 bd 89 69 b5 3d
       -0.10545303 -0.009064172 -0.03242305 0.0885802
000160 f6 c1 c1 bc 2a e8 2b bd 93 0d f0 bc 3d 52 9a 3d
       -0.023652058 -0.041969456 -0.029303348 0.07535217
000170 a2 fa 95 bd 39 58 ad bc 85 57 59 bc 04 56 f5 bd
       -0.07323195 -0.021160232 -0.013265495 -0.11979297
000180 3a ac 19 3e 72 15 95 bb 30 81 ef bc b0 7e bc bc
       0.15007105 -0.0045496756 -0.029236406 -0.023009628
000190 e9 02 b1 bd 69 2a c5 3d 6f 20 09 3e 8d 42 84 bd
       -0.08643133 0.0962723 0.13391279 -0.06458006
0001a0 1e ad 06 3d 14 f0 a6 bc b5 64 cf 3d 3e fc d3 bc
       0.03287994 -0.02037815 0.1012663 -0.025877114
0001b0 b8 0f ba bd f7 11 fb bd bd 0c 56 3c bf df 52 bc
       -0.09085029 -0.12259286 0.0130645605 -0.012870728
0001c0 aa 34 4b bd dd e9 a5 bd 5f 19 21 bd 88 dd 9f 3d
       -0.04961077 -0.081012465 -0.039330836 0.078059256
0001d0 ce a9 a9 3c 68 32 a8 bd 1d a9 b0 3d 82 2c 0e 3e
       0.020710852 -0.08212739 0.08626006 0.13884166
0001e0 7a d5 b3 3d dc 0f 26 bc 58 e3 8d bd ae e3 98 3d
       0.08780952 -0.010135617 -0.06928128 0.074653015
0001f0 e5 88 d8 bc cf 8a aa 3d df c0 1d 3d 13 71 05 3e
       -0.026432464 0.08327257 0.038514014 0.13031416
000200 54 ed c3 bd 31 7c 78 bd 66 20 49 bd 60 7a 80 3d
       -0.09566751 -0.060665313 -0.049103163 0.06273341
000210 52 7c c6 bc aa bc b2 bd d3 ad 8f 3d 3f 43 33 3d
       -0.024229202 -0.08727391 0.07015576 0.043765303
000220 cb 1d 7f bc 21 15 90 3d fc 0c 94 3d 17 5f 0a bd
       -0.015571068 0.0703528 0.07229039 -0.03378209
000230 20 7b 8c 3c 76 e6 3f 3d 0f 91 09 3d d6 82 aa bd
       0.017148554 0.046850644 0.033585604 -0.08325736
000240 b8 40 80 3c e7 b5 07 3c eb b3 c1 3d 24 01 40 3d
       0.01565586 0.008283115 0.09458145 0.046876088
000250 cd 3a b9 3d b9 4f cd bc e4 31 57 bd a2 c2 bd 3d
       0.090444185 -0.025062429 -0.052537814 0.09265639
000260 6c a4 6a bb 1a 40 a7 ba db 40 78 3d d9 c1 fd bd
       -0.003580357 -0.0012760193 0.060608726 -0.12390489
000270 67 4a bf bd 59 24 ba bd dd 81 42 bd 70 7d 88 3d
       -0.09340363 -0.09088964 -0.04748713 0.0666455
000280 a3 9c 06 be 89 5e c4 bd 94 93 e4 bc 67 d3 89 bd
       -0.1314569 -0.09588344 -0.027902402 -0.06729775
000290 9c 15 72 3d 12 21 1e 3d a6 a7 4c bc ac ea a0 3d
       0.05910264 0.038605757 -0.012491142 0.0785726
0002a0 14 87 6e 3d db e2 b3 3b 28 b8 04 bd bc 65 b8 3c
       0.05823429 0.0054896898 -0.032402188 0.022509448
0002b0 4f 48 58 3d 4c c6 4c bd 2d 21 eb bd 5e 33 b0 bc
       0.052803334 -0.049993798 -0.11480937 -0.021508869
0002c0 cc ba f4 3a 5b 13 78 bd 72 26 b8 bc b0 eb d3 bd
       0.0018671392 -0.060565334 -0.02247927 -0.10347688
0002d0 5f da 91 3c 67 e9 fb bc 10 58 9a 3d 7a ed 69 3d
       0.017804323 -0.030750943 0.07536328 0.05711124
0002e0 14 97 ae bd d5 d6 30 bd 56 6e 64 3d a1 3a af 3d
       -0.085249096 -0.04317363 0.055769287 0.085561045
0002f0 2e 24 b5 3d bf 87 74 3d 82 29 f8 3c 65 bc c5 bd
       0.08844791 0.05969977 0.03029323 -0.09655074
000300 62 3c 85 3d 33 8f 05 3e c8 37 9d bd 19 2f 84 3d
       0.06505658 0.13042907 -0.07676655 0.06454296
000310 ef 55 29 bd 47 58 2f 3d bb 10 a5 bd 2e 09 0b bc
       -0.04134172 0.042808797 -0.08059832 -0.008486075
000320 90 cb 74 3d 64 9d b2 bd d0 10 98 bb 6d e8 27 bd
       0.059764445 -0.08721426 -0.004640676 -0.040993143
000330 5f 22 75 3d c3 c2 25 3d c4 dd 0d 3d 4b 78 ce bd
       0.059847232 0.040468942 0.03463532 -0.10081538
000340 a1 a0 99 bb fc 4b e4 3d 79 5a be 3d 73 7c 42 bd
       -0.004688338 0.11147305 0.092946 -0.047481965
000350 ef c6 6d bd 4f 31 e0 bc a5 e7 3c 3d 5c 61 8f 3b
       -0.058051046 -0.027367262 0.04611935 0.00437562
000360 a4 85 dc 3d 4f e0 02 be f6 f8 b9 bd 89 53 a2 bd
       0.107676774 -0.1278088 -0.09080689 -0.07926089
000370 0a 7e da bd 7d 97 9b bc 6b 80 f3 3d 81 8b b4 3d
       -0.10668571 -0.018993134 0.11889728 0.08815671
000380 a0 40 aa 3d 85 9d 78 3d 7f 72 d2 3c a6 86 8e 3d
       0.083131075 0.060697097 0.025689362 0.06959276
000390 93 ee 4b 3d d2 40 ad 3c 10 f7 0b 3d 78 7c 8d bd
       0.04978807 0.021149073 0.034171164 -0.06908506
0003a0 f9 40 3c bd 52 50 d4 bc 8c 65 f7 3c d8 be f8 ba
       -0.0459604 -0.025917206 0.030199789 -0.0018977774
0003b0 6d 5e 6d bd 62 4f dc bd 5d ff 87 3d 72 a9 0f 3d
       -0.05795138 -0.107573286 0.066405036 0.035073705
0003c0 a0 43 4a 3d a2 ba ca bc 6f 93 96 3c a4 01 5f bd
       0.0493809 -0.024747197 0.018380849 -0.054444924
0003d0 7d 52 ae bd e1 33 06 3d fd 00 25 be 69 91 d9 3b
       -0.08511827 0.03276432 -0.16113658 0.0066396487
0003e0 2e c1 4f 3c 2a e4 0d 3e 01 50 72 bd eb 9f 13 be
       0.012680335 0.13856569 -0.05915833 -0.14416473
0003f0 2a e7 19 be 97 06 00 3e be 3d f0 3c 43 92 24 3e
       -0.15029588 0.12502514 0.029326316 0.1607142

transformer.layers.0.self_attn.out_proj.bias f4 [64]
000000 03 2b 04 3c 39 09 95 3b 16 c3 0b 3b d0 df 03 bc
       0.008066895 0.0045482186 0.0021325997 -0.0080489665
000010 e9 1a 0f bc 14 40 32 3c b7 8c 15 3c 53 a5 12 bc
       -0.008734443 0.010879535 0.009127787 -0.008950549
000020 c8 a0 0d 3c 6f f2 8d bb a7 6a 06 bb 3c 03 a5 3b
       0.00864429 -0.004331879 -0.0020510347 0.005035786
000030 f0 47 26 bc 1e 87 78 bb 54 e2 91 3a cb db 77 bb
       -0.010148987 -0.0037922333 0.0011130073 -0.0037820216
000040 27 5e 16 3a 7d 4a 63 bb d8 e3 71 3b 76 4c 90 ba
       0.00057360757 -0.003468185 0.0036909487 -0.0011009115
000050 98 ae 3b bb a2 1f 1a ba d0 92 15 3c 3c 22 e8 bb
       -0.0028638002 -0.00058793474 0.009129241 -0.007084159
000060 11 6f 45 3b cf 64 f2 3b 5f f3 a2 bb c5 11 bc 3b
       0.0030126015 0.007397271 -0.0049728598 0.005739423
000070 85 76 00 bc d3 fd 87 bc b0 1f e3 ba c9 af 9d 39
       -0.007840757 -0.016600525 -0.0017328169 0.00030076344
000080 b3 56 99 3b 7c 6c f4 3b e1 78 04 bb ef c0 14 bb
       0.004679525 0.0074592214 -0.002021365 -0.0022698005
000090 8d 82 50 bc b8 8d 2d bc 9f 14 c2 3b 97 0f 82 bc
       -0.012726438 -0.01059287 0.0059228684 -0.015876574
0000a0 00 20 21 3b 43 06 90 3b 30 3c 45 bb 68 7c 30 bb
       0.0024585724 0.0043952777 -0.003009569 -0.002692962
0000b0 bf b8 bc 3a 38 62 0a 3c 24 ff e4 3a a6 3b 06 3b
       0.001439832 0.008446269 0.0017471057 0.002048233
0000c0 0a d3 a0 b9 54 c3 bf 3c c9 cf 4d 3b fc c7 f3 3a
       -0.00030674814 0.02340857 0.0031404367 0.0018599029
0000d0 2c c6 e4 bb 1f f6 29 3b d0 10 8d b9 0b 0d e3 bb
       -0.0069816317 0.0025934053 -0.00026906142 -0.006929045
0000e0 0a 59 2b bb 04 08 8a 3a 91 90 64 bb bf 09 c6 3b
       -0.00261456 0.0010530953 -0.0034876207 0.0060436423
0000f0 00 c4 2f bb fa 98 35 3c ae b0 20 bc b4 39 49 bc
       -0.0026819706 0.011083836 -0.009807749 -0.012281824

transformer.layers.0.linear1.weight f4 [128, 64]
000000 93 8a e4 bc 9e d6 02 3e e3 b9 57 bd 9c d3 5e bd
       -0.027898109 0.12777182 -0.05266751 -0.054401025
000010 f1 27 0e 3e ae f6 1b bd ee 77 5f bd 80 b7 24 3c
       0.13882424 -0.03807705 -0.054557733 0.010053515
000020 22 45 67 bc 52 2c 1e 3d bb bb ef 3d 8a 21 3d 3b
       -0.014115604 0.038616486 0.117057286 0.0028859102
000030 5b 94 ab bd 36 10 c5 3c a0 3e e8 3d f8 4d 07 bd
       -0.08377906 0.024055582 0.1134007 -0.03303334
000040 2d e0 ef bd f6 c3 86 3d 6b 97 1a 3d bb 41 db ba
       -0.1171268 0.06580345 0.03774206 -0.0016727963
000050 6a a7 a9 bd 64 15 e2 bd 60 28 26 3d bd 7f a6 bd
       -0.08283885 -0.11039236 0.04056585 -0.08129833
000060 6a 53 8b bc 39 af 92 bd 09 bf 23 3d fe ba 89 3d
       -0.017007548 -0.07162327 0.039977107 0.06725119
000070 54 10 85 bd 04 f3 81 3d 4a 7a 74 3d be a0 a6 bc
       -0.06497255 0.0634518 0.059686936 -0.02034032
000080 66 91 fc b9 3a 01 f5 bc 91 3b cc 3d c3 21 08 be
       -0.00048173516 -0.029907811 0.09972299 -0.13294129
000090 44 2b c6 3d 02 dd 23 be de f4 6d 3d aa 36 bc 3d
       0.09676221 -0.16002277 0.05809485 0.09190114
0000a0 39 75 ec 3c 0e e9 ba 3d 58 34 8e 3d cd cf 4f 3d
       0.02886449 0.09126483 0.069435775 0.050735284
0000b0 fb a0 98 bc c9 c4 b0 3d 28 c9 0f bd bc 95 18 bd
       -0.018631449 0.08631284 -0.035103947 -0.037252173
0000c0 7c 16 bb bd c9 aa 86 bc 2d 04 c4 bd 3f a2 eb bd
       -0.09135148 -0.016438859 -0.09571109 -0.11505555
0000d0 b0 aa dd bd a6 43 03 3d b2 41 a2 ba 74 e7 e9 bd
       -0.10823572 0.032046936 -0.0012379198 -0.11421099
0000e0 f7 33 68 bb 71 e1 bb bd e1 99 61 3d 2b 3a 4f bd
       -0.0035431364 -0.09173859 0.05507839 -0.050592583
0000f0 5b 6e f7 3d f6 81 7a 3d 34 df 39 3d 3f fe 83 3d
       0.120815955 0.061159097 0.04537888 0.06444978
000100 6d 60 af bd a7 16 58 3d f9 1c af bd 5e c2 4f bd
       -0.08563314 0.052755978 -0.08550448 -0.050722472
000110 59 d9 c9 bd 49 4e 1b 3c c5 9e a3 bd 11 64 0d 3e
       -0.09855909 0.009479114 -0.07989267 0.13807704
000120 1c b0 f6 ba d7 37 38 bd 98 86 ea 3d a1 04 d4 bd
       -0.0018820795 -0.044975128 0.11451453 -0.103524454
000130 a8 7e 99 3d 6b 99 f9 3d 5c 6d ad 3d 23 91 c4 3d
       0.07494861 0.12187465 0.08468124 0.09597995
000140 43 17 72 3a 2c 7a 06 3e 48 28 e2 bc 99 23 0c be
       0.00092350336 0.13132542 -0.027607098 -0.13685454
000150 04 64 28 bc 63 a2 83 3c fe 80 a6 3d 8d 14 78 3c
       -0.010277752 0.016068643 0.08130072 0.015141618
000160 79 e1 37 bd b7 ac f0 bd 9a f7 7b 3c ca 95 af bd
       -0.04489276 -0.11751693 0.015378857 -0.08573492
000170 bc 9e 00 be d1 20 83 3b 99 a4 f8 b9 e7 c7 c3 bd
       -0.12560552 0.0040017148 -0.0004742488 -0.09559613
000180 b8 e1 84 bd 14 83 e6 bd 32 cd ae bd 03 52 c6 bd
       -0.06488365 -0.1125547 -0.08535232 -0.09683611
000190 54 75 dc bd 45 6f 34 bc 3b 33 47 3d 1f 08 68 3d
       -0.10764566 -0.011012857 0.04863284 0.05664837
0001a0 d5 23 36 3d 8b 9d af bd 1a e8 5b bd 8b 9b 08 bd
       0.044467766 -0.08574971 -0.053688146 -0.033351462
0001b0 39 5a b0 bd 84 8f cf bd 97 20 d0 bd 37 b7 d0 3d
       -0.086109586 -0.10134795 -0.10162466 0.101911955
0001c0 33 f3 6a 3d 65 d6 aa 3d d6 c0 b8 bd 98 a1 e4 3b
       0.05736084 0.08341674 -0.090211555 0.0069772713
0001d0 59 5f c8 3d e0 ea f5 bd 6c 66 db 3d 30 99 a3 3d
       0.09783811 -0.120076895 0.10712895 0.079882026
0001e0 f0 41 da bd e6 4b 90 3c d5 63 34 3d bb 14 fa bd
       -0.10657108 0.017614316 0.04404052 -0.12210985
0001f0 c4 26 31 bd 64 f2 98 3c 44 3d a0 3d b4 f9 bb 3d
       -0.04324986 0.018670268 0.078241855 0.091784865
000200 95 fe a8 3d 57 e3 15 bd c4 55 26 3d c6 27 a4 3b
       0.08251683 -0.03659376 0.040609136 0.005009624
000210 b4 d4 bc 3c 13 fe c5 bd 80 af d2 3d a4 19 ca bd
       0.023050644 -0.096676014 0.1028738 -0.09868172
000220 4c 6c 03 be bf 4c 81 bd 34 28 3b 3d f5 0a 94 bd
       -0.1283428 -0.06313466 0.045692638 -0.072286524
000230 0b 6a e6 bb 3d 25 e3 3d d4 da 59 3d 6d 7f 2c 3d
       -0.0070316843 0.11091087 0.053187206 0.04211371
000240 0f d7 0b 3e 4c 18 84 3d ea b1 9a 3c 21 52 a2 3d
       0.13656257 0.06449947 0.018883664 0.07925821
000250 7d 81 f1 3c f7 6e 02 be d1 7e 6b 3c 3f 8d 20 3c
       0.02948069 -0.12737642 0.014373497 0.009799301
000260 25 3a 16 bd e0 cb 8b 3d b7 d6 de ba 6d 1c ab 3d
       -0.036676545 0.068259954 -0.0017001246 0.08355031
000270 15 0f a1 bd 80 6e c9 3d 17 0a d2 bd d1 ed 8f bc
       -0.07864205 0.09835529 -0.10255831 -0.017569454
000280 dd 97 70 3d 73 c0 72 3d c6 f7 c0 3d 16 56 8a 3d
       0.058738578 0.059265565 0.09422259 0.06754701
000290 37 1a cf bd 40 31 e8 3d fe a4 86 3d 48 9e 9c bd
       -0.10112422 0.11337519 0.065744385 -0.07647377
0002a0 ba f4 0a 3e 1e ea 03 3e da cc 4d bc e2 65 e7 bc
       0.13569918 0.12882277 -0.012561047 -0.028246824
0002b0 9c c2 30 3b 9a a1 ca bd 52 24 6e bb d5 f6 dd bd
       0.0026971465 -0.09894104 -0.0036337567 -0.10838095
0002c0 30 61 e7 ba 23 53 3f 3d 06 7e ae 3d 57 9f 08 3d
       -0.0017652865 0.046710145 0.08520131 0.033355083
0002d0 e4 90 09 ba 27 52 b5 3d 3a 25 a8 bd ff 3d fe bb
       -0.00052477256 0.0885356 -0.082102254 -0.0077588554
0002e0 39 1c e0 3d c4 47 3a 3d ba bb a5 bd f5 90 d4 3d
       0.10942883 0.045478597 -0.080924466 0.10379211
0002f0 d9 16 be bd c3 4c 64 bd f9 a0 6c 3d 26 72 4e bd
       -0.092817016 -0.05573727 0.057770703 -0.05040183
000300 43 eb cf bb e8 8e 8c 3c 90 ca 91 bc 0a 7e e8 bd
       -0.006345184 0.017157987 -0.017796785 -0.11352165
000310 72 ab a6 3d e8 dd 21 3d b4 1c 6f bd 1c 93 2f bc
       0.08138169 0.039518267 -0.058376983 -0.010716226
000320 c8 dd 6e bc 62 99 13 bc d3 14 44 3d 64 e8 91 3c
       -0.014579244 -0.009008737 0.047871422 0.017811008
000330 13 87 f8 3d 6a 28 92 3d 6b 26 ba bd 7c 2b 3f 3d
       0.12135138 0.071366146 -0.09089359 0.04667233
000340 1a b4 47 3d 01 d4 9a bd 21 4c bf 3d 56 82 9f bd
       0.048755743 -0.07559968 0.09340692 -0.077885315
000350 57 39 cc bd 43 62 94 bd 80 e5 0d 3e 4c f2 5b bd
       -0.09971874 -0.072453044 0.13857079 -0.05369787
000360 43 61 c5 3c d2 c9 10 3c f2 55 dc 3d 54 45 b9 3c
       0.02409423 0.00883718 0.1075858 0.022616066
000370 63 32 56 bb cb b3 27 3d a1 1d 1c bb 4b 97 52 3d
       -0.0032683841 0.04094295 -0.002382137 0.051413815
000380 c9 9e f2 3d dd ce e4 bd 1a b0 d4 3d a9 27 b5 bd
       0.11846692 -0.111722685 0.10385151 -0.08845455
000390 26 ed 88 3d 6f 8c 45 3d af d9 fd 3d 9d 86 ad bd
       0.066858575 0.04822963 0.123950355 -0.08472941
0003a0 7c 8f 2c bd 6b ef e6 3c fe e6 4f bd 05 b6 bb 3d
       -0.042129025 0.028190335 -0.0507574 0.09165577
0003b0 55 f1 6c 3d 92 9c 02 bd 23 ab 06 3d 84 c1 3c 3d
       0.05784734 -0.0318876 0.032878052 0.04608299
0003c0 62 65 86 bd 52 52 e8 bc 9f 1a 02 bd 43 d2 95 3d
       -0.06562306 -0.028359566 -0.03176367 0.07315495
0003d0 6e 56 24 bc 61 42 97 3d 76 4b 8d bc 9e cf 56 bd
       -0.010030372 0.07385708 -0.017247897 -0.052444093
0003e0 c7 a2 fb 3d 46 1f 98 3c 2e 7b c2 3d 32 d6 56 3d
       0.12286907 0.0185696 0.09496151 0.052450366
0003f0 d8 18 d4 3d 39 d1 fc 3d 34 e6 fc 3d 2a 1e b7 bd
       0.10356301 0.123445936 0.12348595 -0.089413

transformer.layers.0.linear1.bias f4 [128]
000000 74 09 b1 3c d3 b5 ca 3c 9c f4 6e 37 1c 44 6c bd
       0.021610953 0.024744904 1.4242858e-05 -0.05768214
000010 f7 86 d5 3d 41 74 e3 bd 61 4e 00 bd 2d f3 32 bd
       0.10426133 -0.11106158 -0.031324748 -0.04368894
000020 e4 44 d6 3d e1 e7 cb bd ab 89 9e bd e1 4a 47 3d
       0.104623586 -0.09956337 -0.07741102 0.048655394
000030 9c b9 6c 3c 8d c9 be bd f1 72 b8 bd 4d 6f e5 3d
       0.01444855 -0.093157865 -0.09006298 0.112028696
000040 97 11 d7 bd dd ef 88 3d 63 51 c1 3a 55 ab 07 be
       -0.10501402 0.06686375 0.0014748987 -0.13248952
000050 e1 9a 17 bd 2f 29 b1 3b 37 2a 15 3d 84 1b 2d 3d
       -0.03701294 0.005406521 0.036417212 0.04226257
000060 5a 3f 9a 3d e9 3c 87 bd 14 d6 c4 3d 6f 1b aa bd
       0.075316146 -0.066034146 0.09611145 -0.08306014
000070 42 5f d1 3c 00 8f 10 3d 38 0b cf bc 23 c2 c1 3d
       0.025558118 0.035292625 -0.025273904 0.09460857
000080 2b 27 91 3b 28 fc 35 3c 2b ef 88 3d ff 99 61 bd
       0.004429718 0.011107482 0.06686243 -0.055078503
000090 21 c0 11 bd 60 8f 71 3d b3 e5 01 bb 39 05 33 bd
       -0.03558362 0.058974624 -0.001982075 -0.043706153
0000a0 48 4d d2 bd 19 86 01 3d 52 cf df 3d a6 ac df bd
       -0.102686465 0.031622026 0.10928215 -0.10921602
0000b0 a5 f2 85 bd 0c 34 c0 bd be 00 b2 bd bb 19 09 be
       -0.065404214 -0.09384927 -0.08691548 -0.13388722
0000c0 d8 fc 80 3d 0e d6 5b 3c bc 23 01 3d 77 d8 f5 bd
       0.06298226 0.013417734 0.03152822 -0.12004178
0000d0 5d c0 87 bd 12 6c 08 be bb 15 ac 3d 2d ec bb 3d
       -0.06628487 -0.13322476 0.08402582 0.09175906
0000e0 1c 70 df bc 8d 83 86 3d 6d c6 c5 3d 4f b7 f1 bd
       -0.027275138 0.0656806 0.09656987 -0.118025415
0000f0 ef 2c 95 bd 2b 29 4d bd 96 7c df 3d 8e a5 2e 3c
       -0.07283961 -0.05008809 0.10912435 0.0106595885
000100 9d 8d b5 bd 20 62 c3 3d a4 9e cb 3c cd 57 55 bd
       -0.08864901 0.095402 0.02485592 -0.052085686
000110 6c 74 6c bc e0 1d 88 bd 07 e8 57 bd 0a c5 90 3d
       -0.014432054 -0.06646323 -0.052711513 0.07068832
000120 62 be 80 bd d0 4e 9b 3d d9 8c 98 bd 4c ec b0 bd
       -0.06286313 0.07583392 -0.074487396 -0.0863882
000130 e5 4b 91 bb 0a 10 d8 3d 89 cc a8 3d 6b b3 5c 3c
       -0.004434096 0.10549934 0.08242137 0.013470511
000140 3b e2 15 bd 92 1b 45 bc 50 c0 dc bb f1 17 7c bd
       -0.036592703 -0.012030499 -0.0067367926 -0.06154627
000150 99 ab bc 3d c3 8d 0a bd 99 69 10 3d 99 c9 86 3d
       0.09212417 -0.0338266 0.035256956 0.065814205
000160 68 5b ce bd 84 47 a8 3d d6 d6 91 bd 3e d1 fc bd
       -0.10076028 0.082167655 -0.07121055 -0.12344597
000170 84 e8 dc 3d ad c4 7c 3d ab b7 3a bc 3d 32 15 bd
       0.10786536 0.061711002 -0.011396329 -0.036424864
000180 7e a7 76 bd 66 9c aa bc a3 5c 63 bd 6e 7a 87 bd
       -0.060218327 -0.02082653 -0.055508267 -0.066151485
000190 06 c8 07 be c9 3a e4 3d e3 ab a8 3d f5 02 90 bc
       -0.13259897 0.11144025 0.0823591 -0.017579535
0001a0 51 b9 ab 3d 4b a3 a3 bd 45 6d 09 bd 4f 66 98 3d
       0.08384956 -0.0799013 -0.033551473 0.07441389
0001b0 d6 ca 87 3d c6 42 41 3d af e8 2f 3d e0 1f cf 3d
       0.06630485 0.04718282 0.042946514 0.101135015
0001c0 c1 29 a6 3c 01 06 c1 3d 03 f4 0f 3c 4b c2 8b 3b
       0.020283582 0.09424973 0.008786204 0.004265105
0001d0 82 4a 15 3d 4a 42 7e bd 2e 55 fd bd 62 1c d6 3d
       0.03644801 -0.062074937 -0.12369762 0.10454632
0001e0 c7 6c dc bd 4e d5 43 bd ef 90 be 3d 38 3b 02 bc
       -0.10762935 -0.047810845 0.09304988 -0.007948689
0001f0 89 e5 c5 bd a5 5d 40 bd 18 4b 12 3d 77 03 c6 3d
       -0.09662921 -0.046964306 0.035716146 0.096686296

transformer.layers.0.linear2.weight f4 [64, 128]
000000 16 1d 79 bd c7 c4 a7 bc 1c fb 21 ba da 89 a2 3d
       -0.060818754 -0.020479573 -0.0006179081 0.07936449
000010 5a 07 89 bc ea a2 80 3d 4d b2 24 3c 7e ab 44 bd
       -0.016727138 0.062810734 0.010052276 -0.04801511
000020 b7 84 e3 bc 85 28 98 3d b3 08 64 bd c2 bc ac bc
       -0.027773244 0.074296035 -0.05567236 -0.0210861
000030 69 a1 5b 3a ee 83 31 bd a5 25 32 bd 9b f6 b0 bc
       0.0008378239 -0.04333871 -0.043492932 -0.021601966
000040 88 7a b2 3d a4 c5 83 bd b0 11 6e 3d 50 67 9e bd
       0.08714777 -0.06434181 0.058122337 -0.07734549
000050 e4 b2 be 3d 2d 5a 59 bd e6 9d 35 bd 12 ac 8f bd
       0.093114644 -0.053064514 -0.044340037 -0.07015242
000060 fb 6c 5e bd ca 1f 63 3d fc c0 c0 bd be e5 3b 3d
       -0.05430315 0.05545024 -0.09411809 0.045873396
000070 e2 df 1c 3d be 58 36 3d ff bc ac 3d a5 00 b7 3c
       0.03829945 0.044518225 0.08434486 0.022339175
000080 55 24 c7 bc 0a 83 37 bd da c3 85 bd a9 07 ca bd
       -0.024309317 -0.044802703 -0.06531496 -0.09864742
000090 50 dd 8c 3b 76 fb 82 3d fb cb 52 3d af e4 a4 bd
       0.0042988434 0.063956186 0.051464062 -0.080514304
0000a0 e5 a0 32 bd 0f bf 9d 3d dc 8d b3 3d e9 ea 80 bb
       -0.043610472 0.07702457 0.08767292 -0.0039342535
0000b0 2d bc fe 3c 4d d3 a1 bd 40 ae 20 3d 64 db 3f 3d
       0.031095589 -0.079016306 0.039228678 0.046840087
0000c0 ed 0d 6e bd de ea db 3c 05 34 26 bb d8 dd 92 3d
       -0.05811875 0.026845392 -0.0025360596 0.071712196
0000d0 74 bf b3 3d 64 27 8c bd a0 31 88 bd 71 b9 a7 bd
       0.08776751 -0.06843451 -0.0665009 -0.08189667
0000e0 eb 70 29 bd 3e 02 4d bc 15 e0 a4 3d ed 52 6e 3c
       -0.041367453 -0.012512742 0.08050553 0.014546138
0000f0 c0 bb 98 3c 8e d4 73 3d 6a 9a 33 3d 2f 14 94 bd
       0.018644214 0.05952888 0.043848433 -0.07230412
000100 cb c7 ba bc ed 21 19 bd 27 38 8a bd 25 72 49 bd
       -0.022800347 -0.03738587 -0.067489915 -0.049181122
000110 71 30 24 3c 87 de e3 bc 6f ec 1f 3d 48 01 83 3c
       0.010021315 -0.02781607 0.03904384 0.015991822
000120 3f e7 8f bd e0 7d 1b 3c e7 0d db bc 0e 5d a6 3c
       -0.070265286 0.00949046 -0.026740028 0.020308044
000130 6f 07 0a 3c af 8a 5f bd e5 44 0a bd 16 9b 98 bd
       0.008424624 -0.05457562 -0.03375711 -0.07451455
000140 9b 0a 62 bd 36 f4 91 bc 70 5b c9 bc ea 30 3d 3d
       -0.055185895 -0.017816644 -0.024579734 0.046189226
000150 16 db 15 bd 4d 33 cb bc c4 de 2c 3d a4 e8 92 bd
       -0.03658589 -0.024804736 0.042204633 -0.07173279
000160 bb 3b 79 bd f0 a4 8c 3d 84 b6 b0 bd 03 c6 b0 bd
       -0.06084798 0.06867397 -0.08628562 -0.08631518
000170 9c 1a 86 bb ba f4 1a bd ad 2a 83 3b 33 38 38 bd
       -0.0040925276 -0.037831046 0.00400289 -0.04497547
000180 c8 bd 9f 3c 3d 96 18 bd 8f d6 a0 3a fb d7 ca bd
       0.019499674 -0.037252653 0.0012270975 -0.09904476
000190 da b3 76 bb 28 c8 9f bd 34 26 16 3c ce a5 fe 3c
       -0.003764382 -0.07801849 0.009164382 0.031084921
0001a0 13 7c 80 3d 8f 63 9a bc a9 0c 22 3c f7 9a a8 3d
       0.06273665 -0.018846301 0.009890714 0.08232682
0001b0 21 f7 30 3d 9c 7a 87 3b 4f 78 b0 3d b6 0f 30 bd
       0.04320443 0.004134489 0.08616697 -0.042983733
0001c0 ad 43 3e 3b f5 aa 98 bd 5d 1e b2 bc 4c fc a2 3c
       0.0029032037 -0.074544825 -0.021742994 0.019895695
0001d0 ad 56 37 3d 36 73 98 3d ef e3 01 bd 20 bd ea 3b
       0.044760395 0.0744385 -0.031711515 0.0071636587
0001e0 0b fd 8f bd 7e 71 cd bc 00 af 82 bd e6 95 83 bd
       -0.07030686 -0.025078531 -0.06381035 -0.06425075
0001f0 37 53 39 bd 33 3e 44 bd b4 e0 37 bc fb 91 90 3d
       -0.045245375 -0.04791088 -0.011223007 0.070590936
000200 be f1 92 3d 89 06 3c 3c c0 01 a4 bd 58 42 12 3d
       0.07175015 0.0114761675 -0.08008146 0.0357078
000210 e7 62 f7 bc e2 2c 64 3d cd 61 55 3d eb 72 48 bd
       -0.030198528 0.055706866 0.052095223 -0.04893772
000220 dc 69 8d bc ae 50 23 bd 63 82 5b bd db 84 60 b9
       -0.017262392 -0.039871864 -0.053591143 -0.00021411797
000230 0b 52 92 3d c2 12 f1 bc 3f 1d 6c bd d8 9a 05 bd
       0.07144555 -0.02942789 -0.05764508 -0.032618374
000240 92 0b 1f bc 3e a3 9e 3d b8 87 8b 3d 99 5f 1d 3c
       -0.009707348 0.0774598 0.06812996 0.009605312
000250 e4 00 b6 3d cb 5f 3f 3d 67 4a 5c 3d 37 cb 7f bd
       0.088868886 0.046722215 0.053781893 -0.06244966
000260 c0 c6 85 bd 3d bc 9d 3d b9 0e 76 bd 6e bf 30 bd
       -0.06532049 0.07701919 -0.060072634 -0.04315131
000270 d3 7f 85 3d 4e 6d 79 3d 37 94 af bd 27 6f b1 bc
       0.06518521 0.060895257 -0.085731916 -0.021659447
000280 e2 ff 19 3d fe dc 6a 3d c4 1d 87 3d 53 55 32 3d
       0.037597544 0.05733966 0.06597474 0.043538403
000290 96 d9 c2 3b e6 2e 14 bd 0a 22 38 bd f5 54 c4 3c
       0.0059463484 -0.03617754 -0.044954337 0.023966292
0002a0 8e fd 98 bd b6 6b 71 3d 7f 31 41 3d da b7 43 3d
       -0.07470237 0.05894061 0.047166344 0.047782756
0002b0 fe bd 12 bd 37 78 80 bd ae ba 8c 3d 68 a3 6e bd
       -0.035825722 -0.06272929 0.06871544 -0.058261305
0002c0 ef 6d 9f bc bf 7d 8f bd 60 b5 5a bd 04 6d 32 3d
       -0.0194616 -0.07006406 -0.05339563 0.043560997
0002d0 50 42 82 3d 97 26 62 3d 19 b7 19 bd 46 0a 3c bc
       0.06360304 0.055212583 -0.03752813 -0.011477059
0002e0 3c 6d d0 bd 76 b8 61 3d ad 45 43 bd 0f e1 d4 bc
       -0.10177085 0.055107556 -0.04767387 -0.025986223
0002f0 98 72 04 3d 80 55 ac bc f1 d6 b0 bc a7 55 96 bd
       0.032335848 -0.021036863 -0.021586867 -0.07340556
000300 67 aa 14 3c c4 c1 79 bd df ca ef 3c 4e 0d 3d bc
       0.00907383 -0.060975805 0.029271541 -0.011538817
000310 57 56 d6 3d 82 cd 6e bd 54 fa 74 bd 50 87 c7 bb
       0.10465687 -0.058301456 -0.059809044 -0.0060891286
000320 7c 0a 3a bd 1c c2 1e bd d3 e1 1d bd 04 c7 87 3d
       -0.045420155 -0.038759336 -0.03854544 0.06629756
000330 93 b5 5c bd 23 25 25 bd 18 5d 39 3d 70 56 32 bd
       -0.0538841 -0.04031862 0.045254797 -0.043539464
000340 96 1e 73 3d cb c4 6d bd 45 f8 73 3c 55 b4 6a 3d
       0.05935534 -0.058049005 0.014890735 0.057300884
000350 bd f5 08 3d d5 32 b0 3d 8b 71 85 3d 87 81 07 bd
       0.03343748 0.086034454 0.06515797 -0.03308251
000360 fa 07 32 3d 72 ea c2 bc e4 c8 95 3d 41 dd fd 3c
       0.04346464 -0.023793433 0.073137075 0.030989291
000370 e3 fc bd 3c 7c af 66 3b 1c d9 37 3d 33 1b 85 3c
       0.023191875 0.0035199812 0.044884786 0.016248321
000380 d8 40 57 3d 37 0d 08 3d 9e e2 7b bd a4 8c 33 3c
       0.052552074 0.033215728 -0.061495416 0.010958824
000390 5a d5 88 bd 8a 38 10 3b 1f a3 a5 3d ec 5e 7e 3d
       -0.066813186 0.0022006356 0.080877535 0.062102243
0003a0 88 0e 0c bb e4 5d 04 3d e7 83 ed bc 30 39 cc 3c
       -0.0021370966 0.032316104 -0.02899356 0.024929613
0003b0 b7 be 0c bd 98 b6 a6 bd f9 16 4c bd 90 83 70 bd
       -0.034361567 -0.08140296 -0.049826596 -0.058719218
0003c0 04 6f 60 bd 54 e5 6c 3d c4 3a 9d 3d 71 4e 83 3c
       -0.054793373 0.05783589 0.07677224 0.016028615
0003d0 98 36 e0 bc 6e b4 98 bc 31 2f 88 3d 87 c5 8d bd
       -0.027369782 -0.018640723 0.06649626 -0.06922441
0003e0 72 60 ae 3c 4d 3f 0a bb 5b 2c 2a 3b f1 53 3b bd
       0.021286223 -0.002109486 0.002596638 -0.04573435
0003f0 65 5d 92 3d bd ea 90 3c 9f 9b 9a bc ce 06 8d bd
       0.0714672 0.017690057 -0.018873034 -0.068860635
